week2/model.ckpt (torch, 348311 bytes, 6 tensors)

fc.0.block.0.weight f4 [256, 39]
-0.055219322 0.22922394 -0.26497594 -0.1151247 0.010616959 0.006677143 -0.06492314 0.14588636
-0.034878198 0.036112126 -0.10497563 -0.073797524 -0.17361078 -0.1488419 -0.10641256 0.0126242405
0.0820473 0.231679 -0.18612538 -0.040985495 0.15252417 0.11475426 -0.059884954 0.13797812
0.037534107 0.020264246 0.27386135 -0.07825059 -0.03683934 -0.016620776 -0.0479685 0.15240431
-0.14241357 -0.0930171 -0.1245377 -0.14357975 -0.07266121 0.15505233 0.053235848 0.16308221
0.21153985 -0.05992099 0.032508828 -0.20691912 -0.0630304 -0.05345884 0.10961801 0.089613676
-0.09237057 0.0012487858 0.20367917 0.1991382 0.08318549 -0.012823805 -0.017720386 -0.16549082
0.07322717 -0.12150637 -0.09360952 -0.10607362 0.05920144 0.14054373 -0.001638405 0.092812866
0.07406617 -0.049457166 0.020642659 0.057597395 0.19470988 0.24828939 -0.11327582 -0.14399311
0.09915577 0.164307 0.18664594 0.12140432 -0.01439109 -0.22063434 -0.011471874 -0.054123323
-0.1758778 0.1887772 0.1401986 -0.23817118 0.07722711 -0.1071583 -0.01858248 -0.18079267
0.060417898 -0.15338187 -0.016138056 0.053864796 0.17331722 0.098427445 -0.26940867 -0.18950607
0.08055595 -0.022242513 -0.22619362 -0.119292185 0.15581238 0.09319367 -0.10437916 -0.09450695
-0.19388765 -0.06737202 -0.16109282 -0.17534459 0.014163353 0.08213483 -0.010492988 0.12873739
-0.03838477 0.17211397 0.090096205 -0.15677053 -0.058266006 0.009602538 0.09990898 0.16787164
-0.0363091 -0.087642886 -0.053451207 0.1519287 -0.13711955 -0.1314395 -0.044017322 -0.08508651
0.052758504 -0.09532429 0.070675045 0.010693738 -0.20097259 -0.05174992 0.13140301 0.16729647
0.093844526 -0.10730556 0.031218152 0.13052289 0.17976506 0.033151593 0.09215866 -0.030081162
-0.1382201 -0.11253463 0.20749338 0.03368664 -0.048985407 -0.21574284 -0.22894782 -0.15419029
-0.023544852 0.046391446 0.051245343 -0.17821921 0.2478893 -0.306271 0.08421459 -0.12321193
-0.082061134 -0.22564988 -0.08204882 -0.17379008 -0.15768777 0.024202278 0.0053705354 -0.07586838
-0.083083585 -0.15960109 0.0760914 0.033106305 0.19152938 0.0020043324 -0.14092515 0.11935996
0.09914494 -0.013033901 0.111242704 -0.061770312 0.0058946274 -0.00848063 0.17412941 0.12042226
0.16874869 0.04169823 -0.114767194 -0.07245271 -0.100314155 0.071569294 0.12732565 0.01358883
-0.13214745 0.021119123 -0.13383015 -0.21197681 -0.236356 0.15604399 -0.09568763 -0.100757286
-0.03306276 0.08810528 -0.13513611 -0.14332846 -0.16046806 0.11939835 -0.021103173 0.0954588
0.059345946 0.12074678 0.15998419 0.022705972 -0.07962627 -0.028503705 0.06427825 0.019780384
-0.10156245 -0.06962114 0.12955113 -0.13014267 -0.04149677 0.21622734 0.12096328 0.10432754
-0.22870384 -0.04047934 -0.21525587 -0.012186873 -0.05921468 -0.05053924 -0.010980021 0.099898525
-0.018045532 0.096679315 0.14692795 -0.079794355 0.017299745 -0.18735904 -0.09459003 0.08775043
0.1493668 0.047468938 0.029558437 0.007771759 0.14417467 -0.10691431 0.16913381 -0.19806343
-0.07485791 -0.08225669 -0.064913385 0.070508696 0.1443861 -0.057369575 -0.16161396 -0.053714287
00000000: a82d 62bd aeb9 6a3e edaa 87be 80c6 ebbd
00000010: c1f2 2d3c efcb da3b 6cf6 84bd 3c63 153e
00000020: 71dc 0ebd 4fea 133d 77fd d6bd 2823 97bd
00000030: 06c7 31be 036a 18be d4ee d9bd e7d5 4e3c
00000040: 6a08 a83d 433d 6d3e a797 3ebe 68e0 27bd
00000050: 4c2f 1c3e 4804 eb3d ed49 75bd 234a 0d3e
00000060: 5dbd 193d 3401 a63c 8e37 8c3e d841 a0bd
00000070: d9e4 16bd 4b28 88bc 9e7a 44bd e00f 1c3e
00000080: ddd4 11be c07f bebd 9f0d ffbd 9206 13be
00000090: 67cf 94bd 0ac6 1e3e d50d 5a3d 06ff 263e
000000a0: e79d 583e b66f 75bd fa27 053d 9be2 53be
000000b0: 1516 81bd a8f7 5abd 687f e03d 6087 b73d
000000c0: c82c bdbd 4cae a33a 4691 503e e2ea 4b3e
000000d0: 275d aa3d f01a 52bc 582a 91bc 6d76 29be
000000e0: 20f8 953d 55d8 f8bd 59b6 bfbd 203d d9bd
000000f0: 367d 723d b2ea 0f3e c0bf d6ba ac14 be3d
00000100: 01b0 973d 9993 4abd cb1a a93c 3feb 6b3d
00000110: 0762 473e 933f 7e3e 27fd e7bd ee72 13be
00000120: 2e12 cb3d 1840 283e 1d20 3f3e d4a2 f83d
00000130: 9bc8 6bbc f8ed 61be 87f4 3bbc 6bb0 5dbd
00000140: 4f19 34be cf4e 413e 3990 0f3e 25e3 73be
00000150: 3f29 9e3d d075 dbbd 493a 98bc b721 39be
00000160: c278 773d 2310 1dbe f533 84bc 55a1 5c3d
00000170: 127a 313e 5494 c93d efef 89be e10d 42be
00000180: 85fa a43d ee35 b6bc 4d9f 67be 764f f4bd
00000190: 488d 1f3e 53dc be3d bec4 d5bd dc8c c1bd
000001a0: 7c8a 46be 57fa 89bd 84f5 24be 888d 33be
000001b0: 680d 683c 4e36 a83d c8ea 2bbc bcd3 033e
000001c0: 5939 1dbd a53e 303e 5c84 b83d 7488 20be
000001d0: 56a8 6ebd f753 1d3c 149d cc3d 8be6 2b3e
000001e0: dab8 14bd 1d7e b3bd a7ef 5abd 3293 1b3e
000001f0: 1169 0cbe 1498 06be 824b 34bd d641 aebd
00000200: 4d19 583d 6239 c3bd 14be 903d ca34 2f3c
00000210: c2cb 4dbe b9f7 53bd 838e 063e c44f 2b3e
00000220: 8f31 c03d 04c3 dbbd 36bd ff3c cba7 053e
00000230: 5514 383e f7c9 073d aebd bc3d c56c f6bc
00000240: 9289 0dbe 8e78 e6bd 2579 543e 01fb 093d
00000250: eca4 48bd b1eb 5cbe 4c71 6abe 0fe4 1dbe
00000260: 22e1 c0bc f504 3e3d a3e6 513d 197f 36be
00000270: b1d6 7d3e 8dcf 9cbe b378 ac3d 8956 fcbd
00000280: ab0f a8bd c310 67be 3609 a8bd 07f6 31be
00000290: e778 21be db43 c63c 51fb af3b e260 9bbd
000002a0: ba27 aabd 786e 23be cfd5 9b3d 7a9a 073d
000002b0: 4720 443e 1e5b 033b af4e 10be ff72 f43d
000002c0: 810c cb3d 258c 55bc 37d3 e33d de02 7dbd
000002d0: b827 c13b 57f2 0abc fb4e 323e f29f f63d
000002e0: 75cc 2c3e c3cb 2a3d 100b ebbd 1662 94bd
000002f0: 8271 cdbd ec92 923d a861 023e afa3 5e3c
00000300: a951 07be 0302 ad3c c50a 09be 7310 59be
00000310: 4f07 72be ffc9 1f3e e0f7 c3bd d659 cebd
00000320: d16c 07bd 8b70 b43d 1f61 0abe b2c4 12be
00000330: bd51 24be 1f87 f43d 90e0 acbc e77f c33d
00000340: bc14 733d 164a f73d e5d2 233e e001 ba3c
00000350: 1913 a3bd 9a80 e9bc 51a4 833d 790a a23c
00000360: f9ff cfbd 8795 8ebd 0da9 043e 1f44 05be
00000370: 84f8 29bd b36a 5d3e 99bb f73d ada9 d53d
00000380: 5731 6abe aacd 25bd 096c 5cbe 73ab 47bc
00000390: 188b 72bd 3c02 4fbd 8ce5 33bc 9997 cc3d
000003a0: 39d4 93bc ceff c53d 4874 163e 396b a3bd
000003b0: 32b8 8d3c 0cdb 3fbe 6bb8 c1bd 7fb6 b33d
000003c0: 9cf3 183e ca6e 423d 8924 f23c 3daa fe3b
000003d0: 86a2 133e e4f5 dabd 6a31 2d3e 24d1 4abe
000003e0: 1b4f 99bd 3276 a8bd 4ff1 84bd dd66 903d
000003f0: f3d9 133e 5cfc 6abd 217e 25be 8303 5cbd

fc.0.block.0.bias f4 [256]
0.017388951 0.08194851 -0.1579054 -0.15229207 0.036719456 0.016459918 0.16656826 0.25385207
-0.06892202 0.1861246 0.04293655 0.32624108 -0.16211 -0.038193747 0.03472306 0.2796114
0.36613694 -0.0013837174 0.030771611 -0.15047666 0.14797239 0.037414297 -0.11440082 0.29756838
0.051150776 0.38066706 0.026530463 -7.0005453e-06 0.21477874 0.04733291 0.105807036 0.4167688
-0.07860038 0.37260878 0.33931974 0.18766245 0.20332365 0.13593087 0.11106753 0.042916913
-0.15550542 0.030968567 0.31138313 0.17286031 0.2531696 0.17486762 0.22619617 0.041010857
0.009028788 0.054061484 0.13629143 -0.19178121 0.092865296 0.17876054 0.06767694 -0.013228305
0.024062814 0.13765636 -0.22178113 0.38131335 -0.11880149 0.16979766 -0.1328446 -0.16435556
0.017509595 -0.14442722 0.109440446 -0.021521095 0.1370792 0.29234123 -0.016816506 0.005456457
-0.118839055 0.22325474 -0.19154127 0.3197312 0.09368699 0.059097014 0.44595492 -0.19252338
-0.21108128 0.1671245 -0.139945 0.16521825 0.09788623 -0.17384876 -0.048733108 -0.022388933
0.17644691 0.11341403 0.36458793 -0.116690375 0.12372644 -0.10809645 0.36093673 0.30345893
-0.16064402 -0.18470313 -0.14875658 -0.007040839 0.17639345 -0.14455208 0.045737877 -0.020233033
0.3928724 -0.22207068 -0.06965162 0.18012007 -0.085316405 0.26210383 -0.15191434 -0.048423056
0.022521952 -0.07817613 -0.008409563 0.30585828 -0.148186 -0.078648396 0.032176398 -0.15134148
-0.14865021 0.1605942 0.29083556 -0.063487224 -0.21616936 0.24005626 0.2835042 -0.18286298
-0.027429553 0.36847568 0.045800894 -0.06104737 0.14434738 -0.05925955 -0.21544749 -0.096898206
0.27214304 -0.02804355 0.25407135 -0.02906297 0.17308454 0.18048017 0.024489257 -0.064082004
-0.054359976 -0.16636589 -0.0276752 -0.056127504 -0.09518244 0.4054212 0.2952809 -0.08748712
4.7837e-05 0.07447499 0.28555542 -0.088916 -0.0013580386 0.1696867 0.04837745 -0.045459684
0.19516587 0.28682458 -0.039763145 0.32534215 0.31669605 -0.040636443 -0.15863907 0.22374041
0.20235687 -0.14264372 -0.15723836 -0.02109684 -0.15053372 -0.065244764 0.2804414 0.078454494
0.19273941 0.21207026 0.49173415 0.37229782 0.14096345 0.24766944 -0.026842983 0.33181617
0.10575173 0.39275855 -0.124853894 -0.23475184 0.4055196 -0.07754177 0.15955912 0.34915328
0.18615179 -0.13302809 -0.06524607 0.013549772 -0.18321438 0.22688048 0.15131672 -0.051756598
0.24942 0.26379508 0.028813872 0.2865079 -0.028087575 0.23679675 0.06202424 0.0662223
0.4004294 0.25906947 0.46147484 -0.10153172 -0.0075399345 0.26489046 -0.016015632 0.08192174
-0.005468286 -0.059317306 0.026697373 0.32919377 -0.08064941 -0.08147667 0.30797452 0.05498265
0.020582618 -0.24999084 0.0014567202 0.26434892 0.13125019 -0.053011924 -0.09057484 0.26840356
-0.038401507 -0.02103722 -0.028397888 -0.11137195 -0.0040537696 0.23250325 -0.21888141 0.2962103
-0.09136543 0.06627224 -0.028925696 0.21729271 -0.098998494 -0.07190051 -0.19653955 0.10451856
0.14849015 0.4081272 0.4614444 0.04929297 -0.03631417 -0.11704439 0.3658875 0.34705934
00000000: 4673 8e3c 9fd4 a73d f4b1 21be 74f2 1bbe
00000010: 2467 163d f3d6 863c df90 2a3e e6f8 813e
00000020: fd26 8dbd 7297 3e3e 3cde 2f3d 1209 a73e
00000030: 2a00 26be 0c71 1cbd c439 0e3d 3a29 8f3e
00000040: 4d76 bb3e da5d b5ba bf14 fc3c 8e16 1abe
00000050: 1386 173e bc3f 193d fa4a eabd e25a 983e
00000060: 7a83 513d cbe6 c23e 6a56 d93c 3ae6 eab6
00000070: f5ee 5b3e 27e0 413d 5cb1 d83d b862 d53e
00000080: 3cf9 a0bd 94c6 be3e 51bb ad3e 962a 403e
00000090: 1334 503e 7631 0b3e 6077 e33d a5c9 2f3d
000000a0: d03c 1fbe cbb1 fd3c 9c6d 9f3e 4b02 313e
000000b0: 729f 813e 7f10 333e f89f 673e 00fb 273d
000000c0: 7bed 133c 936f 5d3d fb8f 0b3e 4b62 44be
000000d0: 2930 be3d 010d 373e 359a 8a3d 88bb 58bc
000000e0: 611f c53c caf5 0c3e 981a 63be 813b c33e
000000f0: 324e f3bd 70df 2d3e 6a08 08be d34c 28be
00000100: 4870 8f3c bbe4 13be 5022 e03d 024d b0bc
00000110: 7d5e 0c3e c0ad 953e c5c2 89bc 14cc b23b
00000120: e461 f3bd e49c 643e 6523 44be cfb3 a33e
00000130: f7de bf3d b60f 723d 3454 e43e d924 45be
00000140: b125 58be af22 2b3e be4d 0fbe f92e 293e
00000150: 9378 c83d 6905 32be 5e9c 47bd ff68 b7bc
00000160: 80ae 343e 9d45 e83d 45ab ba3e 5dfb eebd
00000170: 4a64 fd3d ac61 ddbd b3cc b83e f85e 9b3e
00000180: de7f 24be d122 3dbe a553 18be d7b6 e6bb
00000190: 7ca0 343e 7605 14be a457 3b3d bfbf a5bc
000001a0: 9226 c93e 7f66 63be 82a5 8ebd 6571 383e
000001b0: 5eba aebd 7932 863e 6f8f 1bbe 4157 46bd
000001c0: f57f b83c cf1a a0bd 44c8 09bc 7599 9c3e
000001d0: 12be 17be 6912 a1bd 66cb 033d 43f9 1abe
000001e0: c337 18be ce72 243e 66e8 943e 9705 82bd
000001f0: 805b 5dbe 4fd1 753e 7627 913e 6f40 3bbe
00000200: f1b3 e0bc d8a8 bc3e b899 3b3d cf0c 7abd
00000210: cdcf 133e 24ba 72bd 449e 5cbe 9172 c6bd
00000220: 5556 8b3e 96bb e5bc a415 823e 7715 eebc
00000230: 133d 313e cbcf 383e b29d c83c 6d3d 83bd
00000240: 91a8 5ebd d25b 2abe 1ab7 e2bc f4e5 65bd
00000250: 03ef c2bd 5e93 cf3e 0f2f 973e 722c b3bd
00000260: 96a4 4838 5886 983d 5234 923e 9819 b6bd
00000270: 3700 b2ba 5ac2 2d3e 6f27 463d ef33 3abd
00000280: 90d9 473e acda 923e aede 22bd 3f93 a63e
00000290: fc25 a23e 6672 26bd 4872 22be 351c 653e
000002a0: a436 4f3e 3211 12be 1803 21be 48d3 acbc
000002b0: 8325 1abe 0c9f 85bd 0496 8f3e c0ac a03d
000002c0: 7b5d 453e f228 593e 94c4 fb3e d29d be3e
000002d0: b958 103e 0f9d 7d3e d1e5 dbbc cfe3 a93e
000002e0: 5d94 d83d a617 c93e 66b3 ffbd c962 70be
000002f0: 44a0 cf3e 38ce 9ebd 7763 233e 38c4 b23e
00000300: 939e 3e3e 8438 08be bb9f 85bd ddff 5d3c
00000310: 8d9c 3bbe 5b53 683e c5f2 1a3e bafe 53bd
00000320: f567 7f3e 2610 873e 120b ec3c 2ab1 923e
00000330: ea17 e6bc d97a 723e 210d 7e3d 8f9f 873d
00000340: 1505 cd3e c1a4 843e 6e46 ec3e ddef cfbd
00000350: 8e11 f7bb b99f 873e 3733 83bc 96c6 a73d
00000360: 4f2f b3bb b4f6 72bd 73b4 da3c 168c a83e
00000370: 852b a5bd 3edd a6bd d6ae 9d3e 7d35 613d
00000380: e19c a83c 99fd 7fbe 6bef be3a be58 873e
00000390: 7366 063e 0823 59bd 4d7f b9bd 316c 893e
000003a0: e64a 1dbd 3f56 acbc b0a2 e8bc fa16 e4bd
000003b0: 7cd5 84bb 5515 6e3e 7322 60be e0a8 973e
000003c0: cc1d bbbd bdb9 873d 95f5 ecbc fb81 5e3e
000003d0: b9bf cabd 9340 93bd aa41 49be d40d d63d
000003e0: cd0d 183e 0cf6 d03e 7142 ec3e 6de7 493d
000003f0: 2bbe 14bd f8b4 efbd 9b55 bb3e c3b1 b13e

fc.1.block.0.weight f4 [256, 256]
0.055184048 0.034000777 -0.038911987 -0.03627591 0.06911616 0.00429144 -0.024084214 -0.12664625
-0.024863642 0.11736758 0.014070198 0.08049483 -0.0310975 0.074224554 -0.02903865 -0.029784577
-0.044591684 -0.034570616 -0.008831649 -0.008236748 -0.05638955 0.07030009 0.040268436 -0.16588907
0.06767882 -0.04134715 -0.05835571 0.038393345 -0.06710161 0.004198028 -0.02389025 -0.10973896
-0.05049533 -0.04240766 -0.00024442244 -0.003241989 0.08290054 -0.048498604 0.06671445 -0.01934131
-0.004944098 -0.008192962 0.024430826 0.11345838 0.08210108 0.0060022175 0.037351888 -0.038042217
0.0022485289 0.000912102 -0.073958114 0.070587024 -0.12599161 0.03517666 0.055072892 0.037489768
0.09498713 -0.05352842 -0.07612878 -0.09064691 0.13305631 0.027351115 -0.12623613 0.033218786
0.0010668735 0.08575945 -0.013765222 0.08616944 0.05592835 0.04466795 -0.07540905 0.14384188
0.14741884 -0.08775098 0.063831404 0.10279112 0.03273373 -0.057189256 -0.08927818 0.19195975
0.23801263 0.020816715 -0.09048767 -0.0542565 -0.11511825 -0.0013788358 -0.0009793248 0.0018382024
0.059745457 0.017940221 -0.13094589 -0.022415757 0.007893846 0.0011604425 -0.06534902 0.074662074
-0.08700649 0.09325065 0.08652861 0.0017573476 0.13634804 -0.089306906 0.026541589 0.007668105
0.023981396 -0.0874524 0.01294877 -0.024393653 -0.14297375 -0.086424105 0.13606434 -0.014814334
-0.10723006 -0.027448718 -0.03878704 -0.07373834 0.011498614 -0.071703136 -0.014212954 -0.016991813
0.030103028 0.027272554 -0.068296604 0.0019940787 0.04983237 0.0053797336 -0.012307525 0.06845566
0.04998094 -0.0029263902 0.052841667 0.08806612 -0.057738826 0.032395575 0.016944775 -0.09544142
-0.0011784541 -0.077062935 -0.036922786 -0.005171443 -0.06740487 0.037735276 0.03164832 0.09542742
-0.14528309 0.002112457 0.09490887 -0.012203246 -0.18223986 0.023803623 -0.08948914 -0.021596408
0.12984002 -0.11084019 0.13152868 0.04225851 0.107814535 0.0847072 -0.011976073 0.116201
0.030060656 -0.020600045 -0.1304545 0.0057020206 0.04501008 0.086418875 -0.01044929 -0.0381743
-0.041255195 0.09011826 -0.056940377 0.0667576 0.08791519 -0.15179728 -0.030291785 -0.006208805
0.0874149 -0.121247225 0.0009212288 0.017969595 -0.017283326 0.0197609 0.043586284 0.06341828
0.023047479 -0.11818414 -0.020010732 -0.110255666 -0.10724254 -0.07230526 0.025154613 -0.046373475
0.09742772 0.019898416 -0.06252987 -0.07903503 0.036464635 -0.10888543 0.010025629 0.09403051
-0.05266535 0.1609639 0.03406634 0.014728254 0.11123332 -0.022505227 0.008974623 -0.03720536
-0.057974897 0.043664593 0.050499626 0.05694343 0.13484806 0.045114376 0.07867788 0.01706559
-0.13096885 -0.004022956 0.064140484 -0.042150594 -0.03801383 0.11149941 0.050111093 -0.078972645
0.17357239 -0.006786185 -0.09579282 0.06922315 0.00978678 -0.105269685 0.08379256 -0.10242176
-0.07229932 -0.12633201 -0.07870266 -0.023058547 -0.052102614 0.020241665 -0.022707747 0.07868632
0.08394762 0.015778873 0.045925077 0.049682453 0.030723527 0.14740567 0.02653938 0.00020142423
0.10236552 -0.14738752 -0.025254311 -0.05761271 0.08658094 0.065458216 0.051381443 -0.12619786
00000000: ab08 623d 6644 0b3d 2d62 1fbd 0c96 14bd
00000010: c68c 8d3d 359f 8c3b 424c c5bc 8eaf 01be
00000020: d6ae cbbc 6a5e f03d b086 663c 79da a43d
00000030: 2fc0 febc 0b03 983d 77e2 edbc c9fe f3bc
00000040: c5a5 36bd eb99 0dbd 9fb2 10bc 6df3 06bc
00000050: bbf8 66bd 7ef9 8f3d 84f0 243d d3de 29be
00000060: 319b 8a3d a15b 29bd 6606 6fbd 5742 1d3d
00000070: 926c 89bd 9c8f 893b 7cb5 c3bc d2be e0bd
00000080: 31d4 4ebd a8b3 2dbd d325 80b9 8d77 54bb
00000090: c2c7 a93d 79a6 46bd 96a1 883d ab71 9ebc
000000a0: 1a02 a2bb c63b 06bc 2823 c83c de5c e83d
000000b0: 9c24 a83d 40ae c43b 4bfe 183d 28d2 1bbd
000000c0: 0e5c 133b 211a 6f3a 5a77 97bd ee8f 903d
000000d0: f203 01be 6715 103d 1d94 613d df8e 193d
000000e0: 9d88 c23d 9e40 5bbd 68e9 9bbd 16a5 b9bd
000000f0: ea3f 083e 720f e03c 0b44 01be 6c10 083d
00000100: 56d6 8b3a a7a2 af3d 8787 61bc 9a79 b03d
00000110: 2015 653d bef5 363d 0f70 9abd 494b 133e
00000120: f7f4 163e c9b6 b3bd 0aba 823d 2784 d23d
00000130: ce13 063d 483f 6abd 7ad7 b6bd 1991 443e
00000140: 95b9 733e d187 aa3c 9951 b9bd 103c 5ebd
00000150: 1ec3 ebbd 0dba b4ba b05c 80ba d6ef f03a
00000160: a7b7 743d 5ff7 923c ae16 06be 40a1 b7bc
00000170: 3155 013c fd19 983a b5d5 85bd 6ee8 983d
00000180: 7530 b2bd 32fa be3d e935 b13d cd56 e63a
00000190: d29e 0b3e 8ae6 b6bd bf6d d93c ba44 fb3b
000001a0: a274 c43c 3e1a b3bd 1427 543c 33d5 c7bc
000001b0: b667 12be 1fff b0bd 7354 0b3e d2b7 72bc
000001c0: 6f9b dbbd 22dc e0bc 29df 1ebd 2004 97bd
000001d0: af64 3c3c 18d9 92bd 73dd 68bc 6a32 8bbc
000001e0: a09a f63c b16a df3c 17df 8bbd 17af 023b
000001f0: 071d 4c3d 7a48 b03b 80a5 49bc 7b32 8c3d
00000200: d0b8 4c3d aec8 3fbb 8170 583d 035c b43d
00000210: 8c7f 6cbd 39b1 043d c5cf 8a3c cb76 c3bd
00000220: 5c76 9aba 2cd3 9dbd 593c 17bd 3575 a9bb
00000230: 910b 8abd 4e90 1a3d aba1 013d 746f c33d
00000240: 17c5 14be 2671 0a3b 955f c23d 20f0 47bc
00000250: 169d 3abe d1ff c23c 1546 b7bd f3ea b0bc
00000260: c8f4 043e 2e00 e3bd 74af 063e 4217 2d3d
00000270: decd dc3d f87a ad3d 4a37 44bc cafa ed3d
00000280: c441 f63c 6dc1 a8bc dd95 05be 04d8 ba3b
00000290: 7d5c 383d 61fc b03d 8033 2bbc a85c 1cbd
000002a0: 35fb 28bd ec8f b83d 503a 69bd 35b8 883d
000002b0: e10c b43d bf70 1bbe 7a26 f8bc 3b73 cbbb
000002c0: 9506 b33d 7750 f8bd 9e7e 713a f934 933c
000002d0: c395 8dbc 9ce1 a13c 8887 323d 71e1 813d
000002e0: 11ce bc3c 870a f2bd 8ced a3bc b9cd e1bd
000002f0: faa1 dbbd c814 94bd 0c11 ce3c 1df2 3dbd
00000300: 2f88 c73d 0102 a33c a90f 80bd 1edd a1bd
00000310: f15b 153d 53ff debd 8942 243c 1193 c03d
00000320: 9fb7 57bd b8d3 243e 2689 0b3d c64e 713c
00000330: 4bce e33d e25c b8bc 4c0a 133c a664 18bd
00000340: 1677 6dbd a5d9 323d b2d8 4e3d 843d 693d
00000350: 9c15 0a3e dac9 383d de21 a13d 23cd 8b3c
00000360: b31c 06be 00d3 83bb 165c 833d 1aa6 2cbd
00000370: 64b4 1bbd cd59 e43d 4a41 4d3d 69bc a1bd
00000380: f6bc 313e a55e debb 072f c4bd dec4 8d3d
00000390: bb58 203c a297 d7bd 6f9b ab3d 80c2 d1bd
000003a0: aa11 94bd 2e5d 01be dc2e a1bd 47e5 bcbc
000003b0: 8d69 55bd d9d1 a53c 9905 babc 4b26 a13d
000003c0: bbec ab3d b242 813c ef1b 3c3d d47f 4b3d
000003d0: e8af fb3c 83f1 163e 1d69 d93c 6835 5339
000003e0: 04a5 d13d c1ec 16be 21e2 cebc 4efb 6bbd
000003f0: 5951 b13d f50e 863d 5975 523d 033a 01be

fc.1.block.0.bias f4 [256]
-0.059873898 -0.07927236 0.0035179567 0.051328816 -0.034811053 0.06508932 0.05952676 0.04445906
-0.030754464 0.1606888 -0.17008826 0.102297366 0.15525934 0.0051322817 -0.050469305 -0.09490717
0.037414733 0.05483446 -0.057071615 0.12290665 0.15684468 0.05727428 0.1390609 0.058808286
-0.061358668 0.15979189 0.070785426 0.11774976 0.101164274 0.07287487 0.08901875 -0.07692
-0.12024974 0.20868719 -0.14571561 -0.12917286 0.14582051 0.0274585 0.07486714 0.06599324
0.0139724575 -0.06398363 -0.024466578 0.13887703 0.06404727 0.1093323 0.082891144 0.12744194
-0.10321023 0.01211578 0.098813556 0.26149035 0.043687727 0.0044062487 -0.0030996315 -0.081676215
0.021796752 0.21064322 -0.012607298 -0.054177154 0.10553736 0.12624514 0.0017777593 0.18123458
0.18969132 0.1911674 0.01393621 0.1805652 -0.039061386 -0.0024237514 0.029304676 -0.032241344
0.05634102 0.019432645 -0.019930797 0.12318618 0.14584936 0.026601482 0.061520595 0.088224925
0.23130342 0.015786376 0.009214116 0.07829063 -0.06673472 -0.07309737 -0.00725445 -0.059195604
-0.0016971707 0.10109048 0.1317967 0.058966674 -0.093566634 -0.0064590448 0.09549154 -0.058849957
0.15800133 -0.016041122 -0.10167485 0.08470498 0.06400868 0.09121338 0.1729435 -0.08258072
0.08696327 -0.07752971 -0.12455306 0.042686313 0.11103165 0.0075454605 0.11988893 0.102123015
0.0545206 0.0069591785 0.016263545 -0.053046096 0.04980888 0.15920314 0.09310704 0.12262222
0.067734994 0.04468296 -0.01953653 0.04378266 0.028789818 -0.10704163 0.08962803 0.042643253
-0.06605548 0.0016951195 0.08299869 -0.021060001 0.038661454 -0.023163402 0.08880401 0.03203545
-0.076167405 0.02659602 0.031871058 0.1380626 0.12674694 -0.07314027 0.014678294 0.18530397
0.14670606 0.0024795781 0.08373291 0.017933708 0.0671957 0.0004665837 0.0076550883 0.046790868
0.026167372 -0.024714014 -0.018862747 -0.018320084 0.0355762 0.20174539 -0.060659587 -0.12649971
0.08069258 -0.0592597 -0.14928173 0.020832561 0.034414727 0.12763935 0.07499244 0.07348932
0.0055991523 0.104189985 -0.0074442783 0.0066246376 0.07261441 0.055741612 -0.017859383 0.16381367
-0.025923582 0.09189887 0.14665213 0.020833686 0.093523145 0.08721121 0.105768375 0.1715301
0.07600911 0.10839475 -0.01369348 0.025180098 0.030393215 -0.03390139 0.09619229 0.08804398
0.2556549 0.21103978 0.14688177 0.112401105 0.12640436 -0.04999843 0.13860096 -0.05441902
-0.06698515 0.09618255 -0.04067373 0.09537338 0.2107501 0.08795304 0.11606046 0.14016733
-0.0027927672 0.09817221 -0.043952394 0.13431178 0.14653945 -0.12059778 0.015298889 0.12115392
0.085392095 0.0552181 0.047177713 -0.0069539864 0.034705143 0.052436378 -0.024264514 0.039081395
0.0675939 0.1230196 0.038699582 0.062164716 0.027820475 -0.08391957 0.1663955 0.1897574
0.004363971 0.019563815 -0.20645887 0.106355086 -0.07059439 0.036495928 0.09482216 -0.07483433
0.05350533 0.08974984 -0.027975436 0.13136812 0.011232177 -0.109479405 0.16143273 -0.01649598
0.1751616 0.09047808 0.05463178 0.10506379 0.023971397 -0.15815414 0.11336104 0.06579649
00000000: 553e 75bd 8c59 a2bd 858d 663b 2a3e 523d
00000010: 0996 0ebd 8d4d 853d 55d2 733d b41a 363d
00000020: c9f0 fbbc 9b8b 243e 9e2b 2ebe 4881 d13d
00000030: 4efc 1e3e b32c a83b e7b8 4ebd b15e c2bd
00000040: 3140 193d 199a 603d edc3 69bd 7bb6 fb3d
00000050: e49b 203e 6f98 6a3d fb65 0e3e f5e0 703d
00000060: 3a53 7bbd 7ca0 233e f3f7 903d c926 f13d
00000070: 372f cf3d 6b3f 953d 764f b63d 3c88 9dbd
00000080: 7f45 f6bd 18b2 553e 7936 15be e445 04be
00000090: f951 153e a6f0 e03c f153 993d 7727 873d
000000a0: bcec 643c d909 83bd 226e c8bc c835 0e3e
000000b0: 372b 833d 9de9 df3d d5c2 a93d 2480 023e
000000c0: e35f d3bd 4481 463c c35e ca3d 10e2 853e
000000d0: e7f1 323d 4b62 903b 3023 4bbb dc45 a7bd
000000e0: 1a8f b23c dbb2 573e d78e 4ebc dde8 5dbd
000000f0: f923 d83d 6846 013e b403 e93a 8f95 393e
00000100: 713e 423e 63c1 433e b454 643c 15e6 383e
00000110: d5fe 1fbd cdd7 1ebb 5c10 f03c 800f 04bd
00000120: d7c5 663d 3631 9f3c e945 a3bc 0949 fc3d
00000130: 8959 153e 5aeb d93c 05fd 7b3d 45af b43d
00000140: ceda 6c3e 6e52 813c cef6 163c d656 a03d
00000150: 36ac 88bd 13b4 95bd bdb6 edbb 1777 72bd
00000160: 9973 deba 8708 cf3d b7f5 063e 0a87 713d
00000170: dd9f bfbd 65a6 d3bb 1291 c33d a70c 71bd
00000180: 1acb 213e ac68 83bc e73a d0bd ce79 ad3d
00000190: fc16 833d 15ce ba3d 1a18 313e 1520 a9bd
000001a0: cd19 b23d e6c7 9ebd ad15 ffbd d8d7 2e3d
000001b0: 9064 e33d e93f f73b 5488 f53d df25 d13d
000001c0: fe50 5f3d d209 e43b 203b 853c dd46 59bd
000001d0: 6504 4c3d 2606 233e e7ae be3d 5c21 fb3d
000001e0: a5b8 8a3d 7b05 373d 130b a0bc 7255 333d
000001f0: a0d8 eb3c a438 dbbd e78e b73d b1aa 2e3d
00000200: 1848 87bd c62e de3a 38fb a93d 0686 acbc
00000210: 795b 1e3d 2dc1 bdbc e0de b53d 9b37 033d
00000220: a8fd 9bbd e6df d93c 3a8b 023d 4860 0d3e
00000230: f3c9 013e 91ca 95bd 3a7d 703c 53c0 3d3e
00000240: 1d3a 163e 6b80 223b 297c ab3d b6e9 923c
00000250: e69d 893d ce9f f439 89d7 fa3b c8a7 3f3d
00000260: f55c d63c 0b75 cabc 0c86 9abc 0014 96bc
00000270: 59b8 113d 5896 4e3e 3076 78bd 2489 01be
00000280: 2742 a53d 4dba 72bd 4fdd 18be 0ca9 aa3c
00000290: 75f6 0c3d e4b3 023e a395 993d 9281 963d
000002a0: 1879 b73b 8f61 d53d 22ef f3bb 7d13 d93b
000002b0: ddb6 943d 5151 643d d74d 92bc c5be 273e
000002c0: b15d d4bc 7a35 bc3d fa2b 163e 68ab aa3c
000002d0: 1089 bf3d ca9b b23d 179d d83d 96a5 2f3e
000002e0: aaaa 9b3d 11fe dd3d 9e5a 60bc 7e46 ce3c
000002f0: 31fb f83c 2fdc 0abd 7700 c53d 6750 b43d
00000300: 33e5 823e d01a 583e 2d68 163e 8d32 e63d
00000310: 2570 013e 27cb 4cbd 69ed 0d3e 7ae6 5ebd
00000320: 832f 89bd 5bfb c43d 7f99 26bd 1e53 c33d
00000330: e0ce 573e b920 b43d 1bb1 ed3d 0688 0f3e
00000340: dc06 37bb 830e c93d 6d07 34bd 0789 093e
00000350: 700e 163e f8fb f6bd 31a8 7a3c 8c1f f83d
00000360: 0de2 ae3d 602c 623d 6b3d 413d 44de e3bb
00000370: fb26 0e3d 87c7 563d 60c6 c6bc d013 203d
00000380: ac6e 8a3d b3f1 fb3d 7483 1e3d 6ea0 7e3d
00000390: c4e7 e33c 06de abbd 9563 2a3e c44f 423e
000003a0: a4ff 8e3b 4b44 a03c f469 53be b2d0 d93d
000003b0: cb93 90bd c17c 153d 1f32 c23d be42 99bd
000003c0: 6828 5b3d c4ce b73d be2c e5bc 5d85 063e
000003d0: 2a07 383c bd36 e0bd 9f4e 253e 9422 87bc
000003e0: 905d 333e 924c b93d 93c5 5f3d af2b d73d
000003f0: aa5f c43c 29f3 21be d529 e83d 4fc0 863d

fc.2.weight f4 [41, 256]
0.09459992 0.023865273 -0.026805652 0.06970716 0.07191408 0.075036526 -0.05020322 0.07782788
0.15626535 -0.16115028 0.19530077 -0.030124033 0.04750127 -0.21499239 -0.04865139 -0.094954066
0.044699475 0.08212723 -0.0062841177 0.043370076 -0.13857521 -0.08650788 -0.16534497 0.046819422
0.093704306 0.045569707 -0.025803655 0.040645447 0.015958676 -0.03781775 0.048614167 0.027889976
-0.09817671 -0.22855017 -0.1029669 -0.043976545 -0.20696086 -0.05862949 0.00081220164 -0.036994785
0.095277496 -0.13706668 -0.0813049 -0.004200179 -0.023587039 0.028703565 0.04722 -0.23942958
-0.232154 -0.02177387 -0.17529191 -0.27611205 0.12219318 -0.17682643 0.05637212 -0.18297198
0.05792558 0.10346479 0.05269588 -0.118040614 0.09133098 0.046205916 -0.12641221 -0.23311025
-0.02611318 0.068432435 0.06288099 0.096635684 0.08669985 0.086213745 0.0016729637 -0.15885009
0.0766997 0.083684176 0.061332367 0.098771445 -0.22432226 -0.16531858 -0.1924089 0.07732933
0.0699141 -0.086605735 0.022086311 -0.102984406 0.15612607 -0.11222972 -0.027268557 0.08451428
-0.09578348 0.1360456 0.035014383 0.050102197 -0.1478584 -0.072669655 0.03818941 0.01173877
0.022862881 0.06435672 0.20350002 -0.17913589 0.055539235 -0.1158917 0.09235417 -0.14529365
-0.0600503 0.114520624 -0.08265059 0.1085448 -0.03277986 -0.17708227 0.04160417 -0.0050197183
-0.23927183 -0.10221122 -0.23907122 -0.02735163 0.11680865 0.039019413 0.046960402 0.061043613
0.02983482 0.091675915 -0.0147609515 0.03651062 -0.05288553 -0.099561915 0.0035722558 0.04052432
0.07262389 0.12714034 0.06857623 0.06348373 -0.056851313 -0.09562384 0.03405079 -0.22932686
0.009419665 0.02260448 0.09554805 0.040964704 0.06792453 0.042634163 -0.0024160147 -0.16754097
0.070051186 0.0508021 0.056686744 -0.005031074 -0.06366894 0.058345206 0.0118275955 -0.19172984
0.038980413 0.045562573 -0.17386024 0.028603937 0.012591465 0.073205724 -0.14697085 -0.14844276
0.10738959 -0.13491273 -0.009062785 -0.10997623 0.02050756 0.06116254 -0.027985206 -0.1836465
0.0791884 -3.7622067e-06 -0.0415593 -0.127599 0.075994596 0.10117635 -0.14312004 -0.06094756
-0.063251615 0.059265845 0.015713934 -0.17414193 0.100705326 0.109998554 0.09147079 0.07766807
0.06535343 0.061163127 -0.046305943 -0.011469809 0.067446746 -0.10430076 -0.034372173 0.046852298
0.07959959 0.09492585 0.047757775 0.08047095 0.08397602 -0.13875988 0.08425651 -0.0005331018
0.07167424 -0.090228856 -0.0779025 -0.06602659 0.060022708 0.004612731 -0.081816934 -0.039795246
0.06349668 -0.27338487 -0.075135835 0.013466413 0.031866986 0.02181519 0.05083638 -0.05974473
-0.036367986 0.10881275 -0.0073101334 -0.02714773 0.17038612 0.04064836 -0.045890573 0.090967186
0.06666974 0.04900288 -0.13830552 0.04081017 0.030089706 0.062108386 0.037555873 -0.13609733
-0.12821169 0.05957907 -0.068680525 -0.08717601 -0.13591367 -0.107608505 0.081592284 -0.121108316
0.0061342926 -0.055681013 -0.02691394 0.063704714 -0.13327369 -0.033713378 -0.016241718 0.09273601
-0.0693707 0.08328173 0.09817633 0.06547913 0.15202245 0.18057749 0.041994244 0.01733941
00000000: 9abd c13d 1b81 c33c 8797 dbbc a1c2 8e3d
00000010: b047 933d c0ac 993d e4a1 4dbd 3964 9f3d
00000020: 0604 203e 9404 25be edfc 473e adc6 f6bc
00000030: b190 423d f726 5cbe ae46 47bd 4777 c2bd
00000040: cc16 373d 5232 a83d 00eb cdbb d2a4 313d
00000050: a9e6 0dbe 0b2b b1bd 3150 29be b9c5 3f3d
00000060: 0be8 bf3d 4da7 3a3d 3062 d3bc d77b 263d
00000070: c5bb 823c c9e6 1abd a61f 473d 8579 e43c
00000080: df10 c9bd 0e09 6abe 4fe0 d2bd c020 34bd
00000090: 8ced 53be 7a25 70bd eee9 543a d887 17bd
000000a0: d920 c33d 355b 0cbe 2f83 a6bd a8a1 89bb
000000b0: 9b39 c1bc bd23 eb3c c269 413d 072d 75be
000000c0: c7b9 6dbe 1d5f b2bc b97f 33be 8f5e 8dbe
000000d0: 6b40 fa3d fd11 35be 74e6 663d 025d 3bbe
000000e0: 5f43 6d3d 59e5 d33d a3d7 573d 47bf f1bd
000000f0: bd0b bb3d 6a42 3d3d 3472 01be 74b4 6ebe
00000100: 4feb d5bc 4e26 8c3d c0c7 803d eee8 c53d
00000110: b18f b13d d590 b03d 5947 db3a 99a9 22be
00000120: bb14 9d3d 9c62 ab3d a637 7b3d af48 ca3d
00000130: bcb4 65be 4649 29be d706 45be d75e 9e3d
00000140: 202f 8f3d 595e b1bd 5aee b43c 7de9 d2bd
00000150: 83df 1f3e b2d8 e5bd 4f62 dfbc d315 ad3d
00000160: 212a c4bd 8a4f 0b3e 3e6b 0f3d f637 4d3d
00000170: 3168 17be d4d3 94bd 806c 1c3d f853 403c
00000180: f04a bb3c 75cd 833d 4f62 503e 666f 37be
00000190: 1c7d 633d a158 edbd 2f24 bd3d dcc7 14be
000001a0: 4ef7 75bd ca89 ea3d b644 a9bd bc4c de3d
000001b0: 2d44 06bd 0e55 35be 2269 2a3d 737c a4bb
000001c0: ad03 75be 1e54 d1bd 16cf 74be 8710 e0bc
000001d0: 6039 ef3d d2d2 1f3d 8d59 403d de08 7a3d
000001e0: 2768 f43c 95c0 bb3d ebd7 71bc 298c 153d
000001f0: 7f9e 58bd 1ee7 cbbd 821c 6a3b d4fc 253d
00000200: d6bb 943d 1431 023e b271 8c3d c203 823d
00000210: ecdc 68bd 6fd6 c3bd d778 0b3d a9d4 6abe
00000220: f054 1a3c 082d b93c b2ae c33d 9bca 273d
00000230: 041c 8b3d 29a1 2e3d 0056 1ebb dc8f 2bbe
00000240: ff76 8f3d dd15 503d 5c30 683d b5db a4bb
00000250: dc64 82bd 62fb 6e3d 88c8 413c d454 44be
00000260: eda9 1f3d d29f 3a3d 6b08 32be ce52 ea3c
00000270: 6f4c 4e3c e2ec 953d 877f 16be 6101 18be
00000280: 13ef db3d 9026 0abe 137c 14bc 383b e1bd
00000290: 78ff a73c 9285 7a3d 3b41 e5bc d40d 3cbe
000002a0: 872d a23d 387a 7cb6 163a 2abd 50a9 02be
000002b0: 0ea3 9b3d 8c35 cf3d 0f8e 12be 26a4 79bd
000002c0: 108a 81bd bec0 723d 82ba 803c 4352 32be
000002d0: 983e ce3d ec46 e13d 0a55 bb3d 7010 9f3d
000002e0: 05d8 853d 3086 7a3d 4dab 3dbd deeb 3bbc
000002f0: 8521 8a3d a39b d5bd d6c9 0cbd 32e8 3f3d
00000300: 1c05 a33d 7c68 c23d a89d 433d f4cd a43d
00000310: 9ffb ab3d 1217 0ebe ad8e ac3d dbbf 0bba
00000320: f2c9 923d e8c9 b8bd 598b 9fbd f338 87bd
00000330: 5fda 753d 6426 973b a38f a7bd 5700 23bd
00000340: 8c0a 823d 1af9 8bbe d1e0 99bd 3ba2 5c3c
00000350: f586 023d c5b5 b23c cf39 503d e4b6 74bd
00000360: 99f6 14bd 38d9 de3d d889 efbb eb64 debc
00000370: b379 2e3e e57e 263d c1f7 3bbd 014d ba3d
00000380: 258a 883d 3eb7 483d f69f 0dbe 9128 273d
00000390: b07e f63c 5d65 7e3d 30d4 193d 195d 0bbe
000003a0: ed49 03be 2f09 743d 60a8 8cbd 5689 b2bd
000003b0: f42c 0bbe d961 dcbd db19 a73d a307 f8bd
000003c0: 2d02 c93b c611 64bd a07a dcbc 9e77 823d
000003d0: e678 08be 0a17 0abd 5a0d 85bc 61ec bd3d
000003e0: 3a12 8ebd 9d8f aa3d ac10 c93d ec19 863d
000003f0: c6ab 1b3e 4ee9 383e 2802 2c3d 610b 8e3c

fc.2.bias f4 [41]
-0.0024170259 -0.14930505 -0.092054494 -0.024327235 0.028444266 0.08829957 0.10628638 -0.11394436
-0.13454325 -0.032893647 -0.048194107 -0.066215314 -5.6532883e-07 -0.040317293 -0.042763107 -0.040766682
0.0015615338 -0.0581087 -0.08340278 0.016031506 -0.036655974 -0.09121751 -0.023789715 0.16777156
0.120919764 -0.005741695 -0.030576922 0.07067753 -0.058960054 0.09563544 0.03760916 0.11643179
0.060075495 -0.016986765 -0.02554696 -0.03008743 0.03836359 -0.028132949 -0.002400842 -0.06543335
-0.0036309306
00000000: f766 1ebb 6ce3 18be 1187 bcbd e949 c7bc
00000010: f303 e93c 68d6 b43d acac d93d a95b e9bd
00000020: b5c5 09be 7dbb 06bd 2f67 45bd e59b 87bd
00000030: 1ac1 17b5 bf23 25bd 5e28 2fbd f7fa 26bd
00000040: 61ac cc3a 6303 6ebd 14cf aabd 8154 833c
00000050: 9324 16bd 3fd0 babd a6e2 c2bc 4fcc 2b3e
00000060: c8a4 f73d d424 bcbb 747c fabc 61bf 903d
00000070: 1980 71bd 83dc c33d 100c 1a3d ca73 ee3d
00000080: b911 763d d427 8bbc dc47 d1bc ea79 f6bc
00000090: 2423 1d3d 1277 e6bc 7257 1dbb ec01 86bd
000000a0: e8f4 6dbb
