Week1/models/model.ckpt (torch, 20239 bytes, 7 tensors)

layers.0.weight f4 [32, 117]
00000000: f83a 83bd 41af fa3b cc2e 98bd 97f4 923d
00000010: b552 59bd 6826 a1bd f3ed 01bc 5ba9 9c3b
00000020: 98a7 743d 46b2 13bd 20eb 38bd 55fa 463d
00000030: 3974 323d 4868 833d 6cee 963b 2d6d 90bd
00000040: 5ffd 6b3d 8434 273c 4efd a1bd f866 523d
00000050: 4a9e 933c eeeb bd3c c1e2 903d 08c9 763d
00000060: 471d 64bc e430 113d bcfd 663d 8367 963d
00000070: efa5 93bd 67cb a63d 66ef a53d c5d9 5c3d
00000080: aab4 e33c 1aff e43c 9f80 81bd 1eb9 cd3c
00000090: 80bf 40bc 496e 533d 5d83 513d 3653 72bc
000000a0: 7cb1 c13d 954c 8fbd 4682 f33b 2d37 b83d
000000b0: 4b76 51bd e91d bf3d aa1a b63d f3ab b53d
000000c0: 761b af3d 2db0 2fbd fdb9 6dbd c467 18bd
000000d0: ec22 a43d 72d5 15ba 4e8f b73d 327c 15bd
000000e0: c230 6a3d bd90 bb3d 99a1 573d fc01 cf3d
000000f0: 220d 28bc 9a30 6dbd c9c8 96bd 8004 853d
00000100: 1da3 233d 7f4a 1fbc cef3 10bd ef6e 8c3d
00000110: ab95 6bbd 5694 02bc eddd f03b f52d b33d
00000120: 1ca4 273d 81c0 cebc 398e 4c3d b84b a5bd
00000130: 0c0e d53c b45a 753a cb56 e73c d1f7 203d
00000140: 15a2 4b3c dc26 b13d 0e61 f2bc 365f 0c3c
00000150: 8cd0 fabc 907b 81bd 8cc5 2d3d 7304 14bd
00000160: bc96 29bd 15be ad3d e880 34bc bc30 393d
00000170: e933 54bc 3b39 d13d a6a4 98bd ab9b ac3d
00000180: b598 363d 9c52 9fbd 9f8c 5a3c a315 8b3d
00000190: 0d0c cc3c 211b 783c d323 d93b ddf9 633d
000001a0: 8e1e 60bd 2fec 4a3d a135 89bd 949b 583d
000001b0: b91d 833d 5b5e 853c ff48 c43c 4aae 773d
000001c0: dd02 1ebd 7d28 5dbd 7e65 9a3d a96f 39bd
000001d0: b598 bd3d d9ce d5bc 3fc5 813d 6826 92bd
000001e0: 7aa0 063d 9cbb 86bc 1c5e b6bd b1b5 93bd
000001f0: f6c0 533d 4200 183d c035 60bc 8b3b 15bd
00000200: c052 5e3c 81d4 a4bd 3262 88bd 0251 7a3d
00000210: 48a6 5d3c 7e21 80bd f014 05bc 4ea4 90bd
00000220: 9032 6d3c ed69 893d 1cbc 9abd a426 93bc
00000230: d27a 6ebd 308d 733c 7630 97bd e011 d9bb
00000240: 804b c6ba fcf6 df3c b711 aa3d 17a0 bb3d
00000250: e005 ac3c 7d57 6dbd 4eee 2bbd d04f b6bb
00000260: f01b c83b c690 493d ee8c 3f3d fa51 1abd
00000270: 571d 9b3d b6cb 853d 119c b2bd 331a 533d
00000280: d8d3 b1bb 7fd7 b43d 1d03 8cbd cffe b2bd
00000290: 151f a5bc 1147 09bc 3c22 7cbd 0ea5 bc3d
000002a0: 1f6d 2bbd c5a2 75bd bd5c 8abd 5eb6 d5bc
000002b0: 1339 263d 781a a5bc cc4a 92bc b19a 6e3c
000002c0: aa38 523c b1cf be3c 250b 7d3d 92cd 12bd
000002d0: a731 5abd 8c24 bbbd dcdc 77bc c901 a53d
000002e0: 5535 99bd d833 f73c 7346 4e3d b7f5 9e3d
000002f0: 4db7 a5bd 7c17 4a3d 4ff6 b23d 7913 6b3c
00000300: 482b 9ebd c811 21bd 6298 a6bd b93b 743d
00000310: 69f0 b7bd 8913 a53c 2249 e4bc 1571 efbc
00000320: 7c96 b13d ef14 653c 5055 2dbd 380a 7d3d
00000330: d33d 97bc 56c0 533d 4d0b a03d 5934 d23c
00000340: 0042 d93b 37e8 693d 867f 783d 442a 363d
00000350: 09a7 023d a7be 483d 3ed4 debb d0fc 41bc
00000360: e2ad 7f3c ee05 eebc ecac 443d 0cc4 f8bc
00000370: b4ca c4bc d99e 613d 3312 643d 97ee bdbd
00000380: 9465 60bc 26ca bcbd 41e2 75bc 20b6 d0bc
00000390: 2385 b83d c433 85bd af3e 7d3d 473a be3c
000003a0: 86a2 28bd 1405 31bc e60c fcbc 5b4a 823d
000003b0: 76ae 3b3d 4d41 75bd 3de4 8f3d 689d 9bbc
000003c0: f796 a03d 6c9a 903c 5248 b2bd 66df 4d3d
000003d0: e033 043c 3dea b23d c9fc 23bd 8da6 aebd
000003e0: beda 0fbd c6fb 563d 82f0 583d 5207 19bd
000003f0: c68d 2e3d ccab aabd 8eac 5d3d fc14 be3c
-0.06407732 0.0076502864 -0.07430801 0.07175558 -0.05305739 -0.078686535 -0.007930267 0.004780931
0.059730142 -0.036058687 -0.045146108 0.04857858 0.04356787 0.064163744 0.004606059 -0.07052074
0.05761468 0.010205392 -0.07909642 0.05136773 0.018019814 0.02318379 0.070745 0.060250312
-0.013922996 0.035447016 0.056394324 0.07343962 -0.07209384 0.08144265 0.08102302 0.05391862
0.027796108 0.027953673 -0.06323361 0.025112685 -0.011764407 0.051618848 0.05115067 -0.014790347
0.094576806 -0.06997029 0.0074313013 0.08994899 -0.051138204 0.09331877 0.088918045 0.08870687
0.0855016 -0.042892624 -0.0580387 -0.037208334 0.08014473 -0.0005715705 0.0896288 -0.036495395
0.057175405 0.09158466 0.052644346 0.101078 -0.010257037 -0.05790768 -0.073625155 0.06494999
0.03995048 -0.009722351 -0.03538876 0.068570964 -0.05751578 -0.007969936 0.0073506744 0.08749
0.04092799 -0.025238277 0.04994032 -0.08071083 0.026007675 0.0009359524 0.028239628 0.039298836
0.01242878 0.0864999 -0.029587295 0.008567622 -0.030617021 -0.06322396 0.042424724 -0.036137056
-0.041403517 0.08483521 -0.011017062 0.045212492 -0.0129518295 0.10215994 -0.07453279 0.08428129
0.044579227 -0.07779428 0.013339191 0.06791236 0.02490809 0.015143187 0.006626585 0.05565821
-0.05471664 0.04954165 -0.06699682 0.052882746 0.064021535 0.016280344 0.023960588 0.06046895
-0.03857695 -0.05399369 0.07538889 -0.045272503 0.09257642 -0.02609961 0.0633645 -0.07136232
0.032867886 -0.016446881 -0.08904669 -0.07212389 0.051697694 0.03710962 -0.01368469 -0.036433738
0.013569534 -0.080483444 -0.06659354 0.06111241 0.013528414 -0.06256388 -0.008122668 -0.07062589
0.014477387 0.06709657 -0.0755541 -0.017962761 -0.0582226 0.014865205 -0.0738229 -0.0066244453
-0.0015128702 0.027339451 0.0830416 0.09161394 0.020998895 -0.057944763 -0.041975312 -0.0055637136
0.006106846 0.049210332 0.04676526 -0.037675835 0.075739555 0.065329954 -0.087211736 0.051538657
-0.005426865 0.08830165 -0.06836531 -0.08740007 -0.020156423 -0.00837876 -0.061556086 0.09211169
-0.041852113 -0.059969682 -0.0675597 -0.026087936 0.040581774 -0.020154223 -0.017857932 0.0145632485
0.012830893 0.023292394 0.061778206 -0.03584058 -0.05327001 -0.0913783 -0.015128341 0.08056981
-0.074808754 0.030176088 0.050360154 0.0776171 -0.080916025 0.049338803 0.08738386 0.014347904
-0.07723099 -0.0393236 -0.081345335 0.05962727 -0.089814015 0.020150917 -0.027866904 -0.029228726
0.08671281 0.013982042 -0.04231769 0.061777323 -0.018462097 0.051697098 0.078146555 0.025659727
0.0066301823 0.057106223 0.06066849 0.0444739 0.03189758 0.049009945 -0.0068002036 -0.01184006
0.015605422 -0.029055562 0.048016474 -0.03036692 -0.024022438 0.05508313 0.05568142 -0.09274023
-0.013696093 -0.09218244 -0.015007556 -0.025477469 0.09009769 -0.06504014 0.061827358 0.023221148
-0.04117062 -0.010804433 -0.03076787 0.063618384 0.045820676 -0.05987673 0.07025955 -0.018995956
0.07841294 0.01765176 -0.087052 0.050261877 0.008069009 0.08736084 -0.040035997 -0.08527861
-0.03512072 0.052486204 0.05296374 -0.037360497 0.042615674 -0.08333549 0.05411964 0.023203366

layers.0.bias f4 [32]
00000000: 77be dabc fb74 8b3d 4103 69bd 3508 303d
00000010: 0469 183d a50a 99bd 9fc5 a73d 5011 afbd
00000020: 9462 b4bd 3060 38bb 165a a0bd 6c17 31bd
00000030: 380e 76bd 61e2 833c 76db 8cbb e5a2 153d
00000040: 7366 39bd aee2 fe3b 12b1 663d fb10 893a
00000050: 785f 6dbd ea85 a8bd 20e7 863d 10b1 663d
00000060: 635d 823d 9598 023d c8fc b2bd 2d96 82bd
00000070: 6072 893c de0c 94bd 2176 6cbd 0589 13bd
-0.026702149 0.06809422 -0.05688787 0.042976577 0.037209526 -0.074727334 0.0819199 -0.08548224
-0.08807865 -0.0028133504 -0.078296825 -0.043235227 -0.060072154 0.016099157 -0.0042986227 0.0365323
-0.04526372 0.007778487 0.05632121 0.0010457331 -0.057952374 -0.08228667 0.06587052 0.056321204
0.06365468 0.031883795 -0.087396204 -0.063763 0.016778171 -0.07229017 -0.057729844 -0.036019344

layers.2.weight f4 [16, 32]
00000000: 1e26 223e f77f 2a3e 20ce f73b 5386 17be
00000010: 8cc8 103e 914e 6c3c 78f7 883d d3c6 06be
00000020: 2145 b0bd 6334 5dbd 918c 43bd c7d8 e03c
00000030: 7f5e cbbd 3903 e03d b1fa cc3d 9590 643b
00000040: 6bc8 a23d d1ee e93d 8e5a 823d b830 03be
00000050: ad80 b1bd b31e 94bc 17f1 373e bb1e c1bd
00000060: 1342 313e d750 93bd 3317 febd 43e8 08be
00000070: 4fcc 583c e18d 1abe c512 82bd f6f9 88bd
00000080: 38c9 fcbd 36d5 e73d 91f0 093e 4a49 513e
00000090: 916e 32bc 7cf9 b4bd 5e5d 20be bc77 1c3e
000000a0: bafe da3c ce9f 2ebe 4ff8 dbbd 337c 84bd
000000b0: cade e83b 91df 01be 046c 4d3d a0a7 013e
000000c0: 6607 033e c227 e23d 92f7 ee3d 361e d0bd
000000d0: 0df1 fd3d f7bb af3c a2c0 10be df79 cfbc
000000e0: f26d 2abe 4ff8 a7bd 73d4 7ebd a1f7 9c3d
000000f0: 5772 a03d aea7 2f3e c93c 093e 075d 703d
00000100: d22e e3bc 2792 94bb f530 103e c554 dabd
00000110: 5915 143e eb26 8b3d 26f4 903d 613f eebb
00000120: ae85 1ebe 16fb 003d 87d0 04be f611 fdbc
00000130: 650a f53d 680e d43d 3e17 193e b71b a63d
00000140: f5c7 83bc 14d6 29be 5266 12be 2cd0 093a
00000150: 1905 16bd 8cdf 7d3d eb36 0bbe c21f 0d3e
00000160: 8b57 c5bd 98ab 1f3e f5cc 823d 9d2c 20be
00000170: 832b 193c 9425 c73d 9cc8 093e 6a46 2bbe
00000180: 370e 273d 984c f43d dab1 d2bd d344 3cbd
00000190: ec51 983d 3e87 1c3e a03a 1f3d 4c40 d93d
000001a0: fa9d 153e 2c7d d73d b9a4 c03d e6ae 103e
000001b0: 2032 07be 4860 d1bd fd57 bebd 1955 113e
000001c0: c929 033e 99a1 993d 328b 9e3d e736 b1bb
000001d0: f29a 43be 7444 a83d 8269 083e e329 acbd
000001e0: c56f 463e abf9 323d 9867 323d 8f00 533c
000001f0: e347 b3bc 7238 063e 09f9 37bd 29c8 8e3c
00000200: 824f acbd e47e 413d aaf6 f33d 1d1d 073e
00000210: d030 ffbd 4ac6 be3d 9605 adbd ff29 cebd
00000220: 0e38 f63d e087 743c 084e 28be 8402 4b3d
00000230: e865 44bd b0ec d3bc 2a6e cabd d418 18be
00000240: 3042 0d3d 226e f6bd 53d3 153e 049d 8e3d
00000250: 1bea 2fbe 93f5 1dbe f031 53bc 4834 ccbc
00000260: a062 babd 0020 953a 80ad f8ba a2ec 17be
00000270: f865 0fbe d905 093e 6a50 c7bd 0069 0c3b
00000280: 6fbf c3bd 2745 cdbd eae7 0ebe dbe8 ccbc
00000290: 00a5 8dbc 3ff6 e9bd d77f 2d3e bc8e 523c
000002a0: b019 aabd c33b 173e 0d6f d2bd 9d0d ba3d
000002b0: 9c86 31bb b5e2 b53d d23a 01be c6b1 4abd
000002c0: 6db8 3ebe 4c7e d63d 24ed 13bd 57ea c4bd
000002d0: e962 2bbe dbef e83a c93c 0e3c 321c d3bd
000002e0: 53c6 093e 99d0 c73d bf5a 493c 8d31 033d
000002f0: 57ce 233e 5a46 d43d 745a bfbc d42d a93d
00000300: 54ca 243e 5f39 203e f24e e83d c696 a13c
00000310: cc4e b5bb 3db1 16bd 5803 8b3d e6a9 bc3d
00000320: 5498 ebbd f6f6 bf3d f3ca 1cbe 69b0 b73d
00000330: b1f9 41bc 04ce 743c cb85 213e f202 a83d
00000340: 4ae6 87bc 11bd 94bc 7252 853d 1a6d 9dbd
00000350: 660e 11be 421d 003d 7aa4 fc3b cd62 acbc
00000360: 05cb 333e ecb1 5d3e 76c6 c23c 8aac bcbd
00000370: 123f 143d 86ab ba3d 25f4 e5bd 3271 a0bd
00000380: f55a 2e3e cfe9 f4bd aa2d dd3d 2395 3f3e
00000390: 88c4 26be 0531 d5bd aae9 ddbd ee7e 1bbe
000003a0: 4165 5dbd 252a 003d cd0c 0abe f7b8 acbd
000003b0: cb16 15be a3fb 563d c35d 293e e9dc 5b3d
000003c0: fcb7 ad3d e2af 2ebd 20ee fabb 0a6c 1f3e
000003d0: b8e3 86bd b7a6 843d f28e ebbc dfcb a63d
000003e0: a80f 293e 8170 80bc 9a84 f8bd 7bf3 4f3d
000003f0: 33fa dfbc 4c5a f3bb 0327 3cbe 16e3 013e
0.15834853 0.16650377 0.007562414 -0.14797334 0.14139003 0.014423029 0.06687826 -0.13161783
-0.08606935 -0.054005038 -0.047741476 0.027447117 -0.09930133 0.10938115 0.10008753 0.0034876217
0.07948383 0.11422504 0.06364928 -0.12811553 -0.08667121 -0.018081045 0.17963062 -0.094296895
0.17310362 -0.07193153 -0.12406769 -0.13369851 0.013232305 -0.15093185 -0.06351236 -0.06688301
-0.12343067 0.11319964 0.13470675 0.20438114 -0.010890619 -0.08836648 -0.15660617 0.1528005
0.026732791 -0.17053148 -0.107407205 -0.064690016 0.0071066367 -0.1268294 0.05015184 0.126616
0.12795791 0.110427395 0.11668314 -0.10162012 0.123994924 0.021451933 -0.14135984 -0.025326667
-0.16643503 -0.08201658 -0.062214326 0.07664419 0.078343086 0.17153808 0.13402094 0.058682468
-0.027732287 -0.0045340243 0.14081176 -0.106607 0.14461268 0.067945324 0.070778176 -0.007270739
-0.15480682 0.031489454 -0.12970172 -0.030892354 0.11964873 0.1035431 0.14950272 0.08110755
-0.016086558 -0.1658557 -0.14296845 0.0005257155 -0.036625955 0.06198077 -0.13595168 0.13781646
-0.09635838 0.15592802 0.06386749 -0.15642019 0.009348753 0.09723964 0.13455433 -0.1672608
0.04078504 0.119286716 -0.10287829 -0.045964073 0.074375 0.15285966 0.03887427 0.10607967
0.14611045 0.105219215 0.09406418 0.14129218 -0.13202715 -0.10223442 -0.09294126 0.14192618
0.12808909 0.075015254 0.07741393 -0.005408156 -0.19102076 0.082161814 0.13321498 -0.08406427
0.19378574 0.043695133 0.043555826 0.012878551 -0.021884864 0.1310747 -0.044915233 0.017429428
-0.084136024 0.047240153 0.11912282 0.131947 -0.12460482 0.093151644 -0.08448331 -0.10066604
0.1202241 0.014924973 -0.16436017 0.049562946 -0.047948748 -0.025869697 -0.098842934 -0.14853221
0.03448695 -0.12032725 0.14631395 0.06963542 -0.17179148 -0.1542571 -0.012890324 -0.024927273
-0.091008425 0.0011377335 -0.0018972605 -0.14836362 -0.14003742 0.13381137 -0.09732135 0.002142489
-0.095579974 -0.100229554 -0.13955656 -0.025013378 -0.017290592 -0.11423921 0.16943298 0.012851413
-0.08305681 0.14768891 -0.102750875 0.09084628 -0.002708829 0.088811316 -0.12620094 -0.049485944
-0.1862504 0.10473308 -0.036114827 -0.09615009 -0.1673695 0.0017771678 0.0086814845 -0.10308112
0.13454561 0.09756584 0.012289702 0.032029677 0.15996681 0.10364981 -0.023358561 0.08260694
0.16092807 0.15646885 0.113431826 0.019725215 -0.005533075 -0.03679012 0.06787747 0.09212093
-0.11503664 0.09373276 -0.15311794 0.089691944 -0.011839316 0.014941696 0.15773694 0.08203687
-0.016589303 -0.01815656 0.06509866 -0.07686825 -0.14165649 0.031277902 0.007710037 -0.021043206
0.17557915 0.21649903 0.023776274 -0.09212597 0.03619296 0.09114747 -0.112282075 -0.0783409
0.17026885 -0.11958658 0.10799725 0.18709235 -0.16285908 -0.1040974 -0.108355835 -0.15185139
-0.05405164 0.031290192 -0.13481446 -0.08433717 -0.14559476 0.052486073 0.16539674 0.053677473
0.08482358 -0.042648204 -0.0076577812 0.15568557 -0.06586403 0.06477111 -0.028754685 0.08144354
0.16509879 -0.015678646 -0.12134667 0.05076931 -0.027340984 -0.0074265357 -0.18374257 0.12684283

layers.2.bias f4 [16]
00000000: 3924 b0bd e6a0 02be 5a56 20be a78b 55bd
00000010: 0a71 c93d c5b3 acbd c7a9 c2bd 8af9 813d
00000020: 0411 a0bd cd9c 8f3d ec0b 823d 5026 b93d
00000030: 65b0 b43d 276b b83d b11e aa3c 47e1 a5bd
-0.08600659 -0.1275669 -0.1565794 -0.052135136 0.098360136 -0.08432726 -0.09505039 0.06346424
-0.078157455 0.07012329 0.0634993 0.09040511 0.08822707 0.09004813 0.020766588 -0.08099609

layers.4.weight f4 [8, 16]
00000000: e84c 54bd 047a 07be 00c0 d1b7 f85d 97bd
00000010: 5a4e 22be 0210 6f3e 60e1 52bc 18fd e3bd
00000020: 108d 9e3c a0cb 29be cc97 ffbd 1043 f0bd
00000030: 00b4 aab9 6ac6 273e 8809 c93d d8f0 c3bd
00000040: d916 8e3d 198a 1cbe 6eec 343d 6f14 9d3d
00000050: c2e7 6ebe dc6e 343d 11ce 57be 67f5 5bbe
00000060: 2883 ebbd 6f49 b83d 496f e1bd cfb7 df3d
00000070: dace 593d 8608 ab3d 6069 e7bd d993 58be
00000080: 1813 103e e2da b83c 0f41 ccbd 00a5 1d3e
00000090: 621e 06be 51c6 cfbd 1fee 44be ba98 293d
000000a0: d41a 843d 73a1 adbd 4a80 8c3d f30b 35be
000000b0: 45cd 10be 213a fd3c fff2 593e 7c38 b23d
000000c0: fb65 03bc b1ed 80be 3f98 d8bd 9f20 963d
000000d0: a053 e3bd 4159 383e 6d9e 243e 0605 733e
000000e0: 9cab 4abe db8d 8b3e 3508 04bd 6bd9 a0bd
000000f0: 311c 97be 4990 073d 60b1 343e da7d 5dbd
00000100: 9950 823e fed5 72bd f1d6 73bb 73c2 173e
00000110: 2098 743e d684 33be dce9 7b3e 65e2 873d
00000120: f45d 32be dcac 713e 89fd 01be 07b4 6fbd
00000130: b767 29be ad5a 5c3e cae8 203e 8fe7 8a3c
00000140: e04b 34bc c692 21be ba35 c33d 850b c7bd
00000150: 203c a23c 5d3e 5a3d cf1c 863d e3ec 39be
00000160: 6abc 293e ebe5 31be e1dc 1cbe 6059 4ebc
00000170: 70aa f2bc 6ea0 3bbe fe3c bd3c 8c93 6a3e
00000180: 0d86 8abd 33bc b1bd 7c27 92bd 2b30 2f3e
00000190: d06f 443d d3cb 15bc eca0 85be 0fb2 a63d
000001a0: 80bd 103b ee55 e5bd 1af1 b7bd 3399 393e
000001b0: fbe8 94bd 34da 393e 1a26 abbd a741 0a3e
000001c0: a184 c8bc 567b ef3c e653 3ebe 8d6b 3ebe
000001d0: c094 2c3e 1a66 263d 5850 d5bd 9b84 8dbd
000001e0: 200d 12be 94a5 093e 589a 193d fcf6 72be
000001f0: 2e57 cdbd 48d7 3f3e d4b5 c53c 552a afbd
-0.051831156 -0.13230139 -2.5004148e-05 -0.0739097 -0.15850201 0.2334595 -0.012871116 -0.11132258
0.019354373 -0.16581583 -0.12480125 -0.11731541 -0.00032559037 0.16384283 0.09816271 -0.09567422
0.069379516 -0.15287055 0.04417079 0.07669913 -0.23330596 0.044051036 -0.21074702 -0.21480332
-0.114996254 0.08998381 -0.11007554 0.109237306 0.053175785 0.08351235 -0.112993956 -0.2115015
0.14069784 0.022565309 -0.099733464 0.15394974 -0.13097528 -0.10145248 -0.19231461 0.041405417
0.064504296 -0.084780596 0.06860407 -0.1768034 -0.14140804 0.030911507 0.21284102 0.0870218
-0.0080199195 -0.25181344 -0.10575914 0.07330441 -0.110999346 0.18002798 0.1607606 0.23732385
-0.19792026 0.27256665 -0.03223439 -0.07853969 -0.29513696 0.033096585 0.17645788 -0.0540751
0.25452116 -0.05928611 -0.0037206972 0.1482027 0.23886156 -0.17531142 0.24600929 0.06634978
-0.17418653 0.23601097 -0.12694372 -0.058521297 -0.1654347 0.21518965 0.15713802 0.016956119
-0.011004418 -0.15778646 0.09531732 -0.09718994 0.01980406 0.05328213 0.065484636 -0.18156771
0.1657578 -0.17372863 -0.15318634 -0.012594551 -0.029622287 -0.18322918 0.023100372 0.22907847
-0.067638494 -0.08678474 -0.07136437 0.17108218 0.047958195 -0.009142834 -0.26099336 0.08139431
0.0022085607 -0.111980304 -0.08981533 0.18124847 -0.07271 0.18149644 -0.08356877 0.13501607
-0.024477305 0.029233616 -0.18586692 -0.18595715 0.16853619 0.040624715 -0.10415715 -0.06910058
-0.1426282 0.1344207 0.03750071 -0.2372703 -0.10026394 0.18734467 0.024134554 -0.08552996

layers.4.bias f4 [8]
00000000: 0419 fb3d e1af 453e 9c77 18b9 8704 013e
00000010: 49d9 213e e000 393e 38e8 05be d2b4 0bbe
0.12260631 0.19305374 -0.00014540408 0.12599383 0.15805544 0.1806674 -0.13076866 -0.13643196

layers.6.weight f4 [1, 8]
00000000: fe5a 5f3e 6901 0fbe 5807 74be fefa c53e
00000010: 9efd c13e f188 a23d 541c 29be b9fd 87be
0.21812055 -0.13965382 -0.23830926 0.38668054 0.37888807 0.07936276 -0.16514713 -0.26560763
